{"modelTopology":{"class_name":"Sequential","config":[{"class_name":"Conv2D","config":{"filters":4,"kernel_initializer":{"class_name":"VarianceScaling","config":{"scale":1,"mode":null,"distribution":null,"seed":null}},"kernel_regularizer":null,"kernel_constraint":null,"kernel_size":[2,2],"strides":[8,8],"padding":"valid","data_format":"channels_last","dilation_rate":[1,1],"activation":"relu","use_bias":true,"bias_initializer":{"class_name":"Zeros","config":{}},"bias_regularizer":null,"activity_regularizer":null,"bias_constraint":null,"name":"conv2d_Conv2D1","trainable":true,"batch_input_shape":[null,32,32,3],"dtype":"float32"}},{"class_name":"Conv2D","config":{"filters":4,"kernel_initializer":{"class_name":"VarianceScaling","config":{"scale":1,"mode":null,"distribution":null,"seed":null}},"kernel_regularizer":null,"kernel_constraint":null,"kernel_size":[2,2],"strides":[8,8],"padding":"valid","data_format":"channels_last","dilation_rate":[1,1],"activation":"relu","use_bias":true,"bias_initializer":{"class_name":"Zeros","config":{}},"bias_regularizer":null,"activity_regularizer":null,"bias_constraint":null,"name":"conv2d_Conv2D2","trainable":true}},{"class_name":"Flatten","config":{"name":"flatten_Flatten1","trainable":true}},{"class_name":"Dense","config":{"units":30,"activation":"softmax","use_bias":true,"kernel_initializer":{"class_name":"VarianceScaling","config":{"scale":1,"mode":null,"distribution":null,"seed":null}},"bias_initializer":{"class_name":"Zeros","config":{}},"kernel_regularizer":null,"bias_regularizer":null,"activity_regularizer":null,"kernel_constraint":null,"bias_constraint":null,"name":"dense_Dense1","trainable":true}},{"class_name":"Dense","config":{"units":10,"activation":"linear","use_bias":true,"kernel_initializer":{"class_name":"VarianceScaling","config":{"scale":1,"mode":"fan_avg","distribution":"normal","seed":null}},"bias_initializer":{"class_name":"Zeros","config":{}},"kernel_regularizer":null,"bias_regularizer":null,"activity_regularizer":null,"kernel_constraint":null,"bias_constraint":null,"name":"dense_Dense2","trainable":true}}],"keras_version":"tfjs-layers 0.7.4","backend":"tensor_flow.js"},"weightsManifest":[{"paths":["./myCifar02.weights.bin"],"weights":[{"name":"conv2d_Conv2D1/kernel","shape":[2,2,3,4],"dtype":"float32"},{"name":"conv2d_Conv2D1/bias","shape":[4],"dtype":"float32"},{"name":"conv2d_Conv2D2/kernel","shape":[2,2,4,4],"dtype":"float32"},{"name":"conv2d_Conv2D2/bias","shape":[4],"dtype":"float32"},{"name":"dense_Dense1/kernel","shape":[4,30],"dtype":"float32"},{"name":"dense_Dense1/bias","shape":[30],"dtype":"float32"},{"name":"dense_Dense2/kernel","shape":[30,10],"dtype":"float32"},{"name":"dense_Dense2/bias","shape":[10],"dtype":"float32"}]}]}